…
2023-04-10 20:34:48,202 - INFO - Training model on 20960 audio files.
2023-04-10 20:34:48,202 - INFO - Testing model on  5240 audio files.
2023-04-10 20:34:48,203 - INFO - Train/Test ratio: 4.0
2023-04-10 20:34:48,203 - INFO - Real/Fake ratio in training: 1.0 (pos_weight)
2023-04-10 20:35:20,415 - INFO - Model summary:
==========================================================================================
Layer (type:depth-idx)                   Output Shape              Param #
==========================================================================================
TSSD                                     [64, 1]                   --
├─Conv1d: 1-1                            [64, 16, 64600]           112
├─BatchNorm1d: 1-2                       [64, 16, 64600]           32
├─RSM1D: 1-3                             [64, 32, 16150]           --
│    └─Conv1d: 2-1                       [64, 32, 16150]           1,536
│    └─BatchNorm1d: 2-2                  [64, 32, 16150]           64
│    └─Conv1d: 2-3                       [64, 32, 16150]           3,072
│    └─BatchNorm1d: 2-4                  [64, 32, 16150]           64
│    └─Conv1d: 2-5                       [64, 32, 16150]           3,072
│    └─Conv1d: 2-6                       [64, 32, 16150]           512
│    └─BatchNorm1d: 2-7                  [64, 32, 16150]           64
├─RSM1D: 1-4                             [64, 64, 4037]            --
│    └─Conv1d: 2-8                       [64, 64, 4037]            6,144
│    └─BatchNorm1d: 2-9                  [64, 64, 4037]            128
│    └─Conv1d: 2-10                      [64, 64, 4037]            12,288
│    └─BatchNorm1d: 2-11                 [64, 64, 4037]            128
│    └─Conv1d: 2-12                      [64, 64, 4037]            12,288
│    └─Conv1d: 2-13                      [64, 64, 4037]            2,048
│    └─BatchNorm1d: 2-14                 [64, 64, 4037]            128
├─RSM1D: 1-5                             [64, 128, 1009]           --
│    └─Conv1d: 2-15                      [64, 128, 1009]           24,576
│    └─BatchNorm1d: 2-16                 [64, 128, 1009]           256
│    └─Conv1d: 2-17                      [64, 128, 1009]           49,152
│    └─BatchNorm1d: 2-18                 [64, 128, 1009]           256
│    └─Conv1d: 2-19                      [64, 128, 1009]           49,152
│    └─Conv1d: 2-20                      [64, 128, 1009]           8,192
│    └─BatchNorm1d: 2-21                 [64, 128, 1009]           256
├─RSM1D: 1-6                             [64, 128, 252]            --
│    └─Conv1d: 2-22                      [64, 128, 252]            49,152
│    └─BatchNorm1d: 2-23                 [64, 128, 252]            256
│    └─Conv1d: 2-24                      [64, 128, 252]            49,152
│    └─BatchNorm1d: 2-25                 [64, 128, 252]            256
│    └─Conv1d: 2-26                      [64, 128, 252]            49,152
│    └─Conv1d: 2-27                      [64, 128, 252]            16,384
│    └─BatchNorm1d: 2-28                 [64, 128, 252]            256
├─Linear: 1-7                            [64, 64]                  8,256
├─Linear: 1-8                            [64, 32]                  2,080
├─Linear: 1-9                            [64, 1]                   33
==========================================================================================
Total params: 348,497
Trainable params: 348,497
Non-trainable params: 0
Total mult-adds (G): 28.50
==========================================================================================
Input size (MB): 16.54
Forward/backward pass size (MB): 4415.14
Params size (MB): 1.39
Estimated Total Size (MB): 4433.08
…
